backend: tensorflow
class_name: Sequential
config:
  layers:
  - class_name: InputLayer
    config:
      batch_input_shape: !!python/tuple
      - null
      - 75
      - 75
      - 3
      dtype: float32
      name: conv2d_input
      ragged: false
      sparse: false
  - class_name: Conv2D
    config:
      activation: linear
      activity_regularizer: null
      batch_input_shape: !!python/tuple
      - null
      - 75
      - 75
      - 3
      bias_constraint: null
      bias_initializer:
        class_name: Zeros
        config: {}
      bias_regularizer: null
      data_format: channels_last
      dilation_rate: &id001 !!python/tuple
      - 1
      - 1
      dtype: float32
      filters: 32
      groups: 1
      kernel_constraint: null
      kernel_initializer:
        class_name: GlorotUniform
        config:
          seed: null
      kernel_regularizer: null
      kernel_size: !!python/tuple
      - 3
      - 3
      name: conv2d
      padding: valid
      strides: *id001
      trainable: true
      use_bias: true
  - class_name: Activation
    config:
      activation: relu
      dtype: float32
      name: activation
      trainable: true
  - class_name: MaxPooling2D
    config:
      data_format: channels_last
      dtype: float32
      name: max_pooling2d
      padding: valid
      pool_size: &id002 !!python/tuple
      - 2
      - 2
      strides: *id002
      trainable: true
  - class_name: Dropout
    config:
      dtype: float32
      name: dropout
      noise_shape: null
      rate: 0.2
      seed: null
      trainable: true
  - class_name: Conv2D
    config:
      activation: linear
      activity_regularizer: null
      bias_constraint: null
      bias_initializer:
        class_name: Zeros
        config: {}
      bias_regularizer: null
      data_format: channels_last
      dilation_rate: *id001
      dtype: float32
      filters: 64
      groups: 1
      kernel_constraint: null
      kernel_initializer:
        class_name: GlorotUniform
        config:
          seed: null
      kernel_regularizer: null
      kernel_size: !!python/tuple
      - 3
      - 3
      name: conv2d_1
      padding: valid
      strides: *id001
      trainable: true
      use_bias: true
  - class_name: Activation
    config:
      activation: relu
      dtype: float32
      name: activation_1
      trainable: true
  - class_name: MaxPooling2D
    config:
      data_format: channels_last
      dtype: float32
      name: max_pooling2d_1
      padding: valid
      pool_size: &id003 !!python/tuple
      - 2
      - 2
      strides: *id003
      trainable: true
  - class_name: Dropout
    config:
      dtype: float32
      name: dropout_1
      noise_shape: null
      rate: 0.2
      seed: null
      trainable: true
  - class_name: Conv2D
    config:
      activation: linear
      activity_regularizer: null
      bias_constraint: null
      bias_initializer:
        class_name: Zeros
        config: {}
      bias_regularizer: null
      data_format: channels_last
      dilation_rate: *id001
      dtype: float32
      filters: 64
      groups: 1
      kernel_constraint: null
      kernel_initializer:
        class_name: GlorotUniform
        config:
          seed: null
      kernel_regularizer: null
      kernel_size: !!python/tuple
      - 3
      - 3
      name: conv2d_2
      padding: valid
      strides: *id001
      trainable: true
      use_bias: true
  - class_name: Activation
    config:
      activation: relu
      dtype: float32
      name: activation_2
      trainable: true
  - class_name: MaxPooling2D
    config:
      data_format: channels_last
      dtype: float32
      name: max_pooling2d_2
      padding: valid
      pool_size: &id004 !!python/tuple
      - 2
      - 2
      strides: *id004
      trainable: true
  - class_name: Dropout
    config:
      dtype: float32
      name: dropout_2
      noise_shape: null
      rate: 0.2
      seed: null
      trainable: true
  - class_name: Conv2D
    config:
      activation: linear
      activity_regularizer: null
      bias_constraint: null
      bias_initializer:
        class_name: Zeros
        config: {}
      bias_regularizer: null
      data_format: channels_last
      dilation_rate: *id001
      dtype: float32
      filters: 64
      groups: 1
      kernel_constraint: null
      kernel_initializer:
        class_name: GlorotUniform
        config:
          seed: null
      kernel_regularizer: null
      kernel_size: !!python/tuple
      - 3
      - 3
      name: conv2d_3
      padding: valid
      strides: *id001
      trainable: true
      use_bias: true
  - class_name: Activation
    config:
      activation: relu
      dtype: float32
      name: activation_3
      trainable: true
  - class_name: MaxPooling2D
    config:
      data_format: channels_last
      dtype: float32
      name: max_pooling2d_3
      padding: valid
      pool_size: &id005 !!python/tuple
      - 2
      - 2
      strides: *id005
      trainable: true
  - class_name: Dropout
    config:
      dtype: float32
      name: dropout_3
      noise_shape: null
      rate: 0.2
      seed: null
      trainable: true
  - class_name: Flatten
    config:
      data_format: channels_last
      dtype: float32
      name: flatten
      trainable: true
  - class_name: Dense
    config:
      activation: linear
      activity_regularizer: null
      bias_constraint: null
      bias_initializer:
        class_name: Zeros
        config: {}
      bias_regularizer: null
      dtype: float32
      kernel_constraint: null
      kernel_initializer:
        class_name: GlorotUniform
        config:
          seed: null
      kernel_regularizer: null
      name: dense
      trainable: true
      units: 64
      use_bias: true
  - class_name: Activation
    config:
      activation: relu
      dtype: float32
      name: activation_4
      trainable: true
  - class_name: Dropout
    config:
      dtype: float32
      name: dropout_4
      noise_shape: null
      rate: 0.2
      seed: null
      trainable: true
  - class_name: Dense
    config:
      activation: linear
      activity_regularizer: null
      bias_constraint: null
      bias_initializer:
        class_name: Zeros
        config: {}
      bias_regularizer: null
      dtype: float32
      kernel_constraint: null
      kernel_initializer:
        class_name: GlorotUniform
        config:
          seed: null
      kernel_regularizer: null
      name: dense_1
      trainable: true
      units: 64
      use_bias: true
  - class_name: Activation
    config:
      activation: relu
      dtype: float32
      name: activation_5
      trainable: true
  - class_name: Dropout
    config:
      dtype: float32
      name: dropout_5
      noise_shape: null
      rate: 0.2
      seed: null
      trainable: true
  - class_name: Dense
    config:
      activation: linear
      activity_regularizer: null
      bias_constraint: null
      bias_initializer:
        class_name: Zeros
        config: {}
      bias_regularizer: null
      dtype: float32
      kernel_constraint: null
      kernel_initializer:
        class_name: GlorotUniform
        config:
          seed: null
      kernel_regularizer: null
      name: dense_2
      trainable: true
      units: 1
      use_bias: true
  - class_name: Activation
    config:
      activation: sigmoid
      dtype: float32
      name: activation_6
      trainable: true
  name: sequential
keras_version: 2.5.0
